…
m=10000000000.0, begin_epoch=1, resume=None, save='experiments\\time_change_NF', val_freq=1, log_freq=10, no_tb_log=False, test_split='test', time_change='id', time_change_MGN_K=3, time_change_MGN_N=2, l1_reg_loss=False, l2_reg_loss=False, alpha_l1_reg_loss=1.0, alpha_l2_reg_loss=1.0, effective_shape=1)
TimeChangedCNF(
  (sequential_flow): SequentialFlow(
    (chain): ModuleList(
      (0): CNF(
        (odefunc): RegularizedODEfunc(
          (odefunc): AugODEfunc(
            (diffeq): AugODEnet(
              (layers): ModuleList(
                (0): IgnoreLinear(
                  (_layer): Linear(in_features=2, out_features=8, bias=True)
                )
                (1): IgnoreLinear(
                  (_layer): Linear(in_features=8, out_features=32, bias=True)
                )
                (2): IgnoreLinear(
                  (_layer): Linear(in_features=32, out_features=32, bias=True)
                )
                (3): IgnoreLinear(
                  (_layer): Linear(in_features=32, out_features=8, bias=True)
                )
                (4): IgnoreLinear(
                  (_layer): Linear(in_features=8, out_features=1, bias=True)
                )
              )
              (activation_fns): ModuleList(
                (0): Softplus(beta=1, threshold=20)
                (1): Softplus(beta=1, threshold=20)
                (2): Softplus(beta=1, threshold=20)
                (3): Softplus(beta=1, threshold=20)
              )
            )
          )
        )
      )
    )
  )
  (time_change_func): time_change_func_id()
)
TimeChangedCNF(
  (sequential_flow): SequentialFlow(
    (chain): ModuleList(
      (0): CNF(
        (odefunc): RegularizedODEfunc(
          (odefunc): AugODEfunc(
            (diffeq): AugODEnet(
              (layers): ModuleList(
                (0): IgnoreLinear(
                  (_layer): Linear(in_features=2, out_features=8, bias=True)
                )
                (1): IgnoreLinear(
                  (_layer): Linear(in_features=8, out_features=32, bias=True)
                )
                (2): IgnoreLinear(
                  (_layer): Linear(in_features=32, out_features=32, bias=True)
                )
                (3): IgnoreLinear(
                  (_layer): Linear(in_features=32, out_features=8, bias=True)
                )
                (4): IgnoreLinear(
                  (_layer): Linear(in_features=8, out_features=1, bias=True)
                )
              )
              (activation_fns): ModuleList(
                (0): Softplus(beta=1, threshold=20)
                (1): Softplus(beta=1, threshold=20)
                (2): Softplus(beta=1, threshold=20)
                (3): Softplus(beta=1, threshold=20)
              )
            )
          )
        )
      )
    )
  )
  (time_change_func): time_change_func_id()
)
TimeChangedCNF(
  (sequential_flow): SequentialFlow(
    (chain): ModuleList(
      (0): CNF(
        (odefunc): RegularizedODEfunc(
          (odefunc): AugODEfunc(
            (diffeq): AugODEnet(
              (layers): ModuleList(
                (0): IgnoreLinear(
                  (_layer): Linear(in_features=2, out_features=8, bias=True)
                )
                (1): IgnoreLinear(
                  (_layer): Linear(in_features=8, out_features=32, bias=True)
                )
                (2): IgnoreLinear(
                  (_layer): Linear(in_features=32, out_features=32, bias=True)
                )
                (3): IgnoreLinear(
                  (_layer): Linear(in_features=32, out_features=8, bias=True)
                )
                (4): IgnoreLinear(
                  (_layer): Linear(in_features=8, out_features=1, bias=True)
                )
              )
              (activation_fns): ModuleList(
                (0): Softplus(beta=1, threshold=20)
                (1): Softplus(beta=1, threshold=20)
                (2): Softplus(beta=1, threshold=20)
                (3): Softplus(beta=1, threshold=20)
              )
            )
          )
        )
      )
    )
  )
  (time_change_func): time_change_func_id()
)
TimeChangedCNF(
  (sequential_flow): SequentialFlow(
    (chain): ModuleList(
      (0): CNF(
        (odefunc): RegularizedODEfunc(
          (odefunc): AugODEfunc(
            (diffeq): AugODEnet(
              (layers): ModuleList(
                (0): IgnoreLinear(
                  (_layer): Linear(in_features=2, out_features=8, bias=True)
                )
                (1): IgnoreLinear(
                  (_layer): Linear(in_features=8, out_features=32, bias=True)
                )
                (2): IgnoreLinear(
                  (_layer): Linear(in_features=32, out_features=32, bias=True)
                )
                (3): IgnoreLinear(
                  (_layer): Linear(in_features=32, out_features=8, bias=True)
                )
                (4): IgnoreLinear(
                  (_layer): Linear(in_features=8, out_features=1, bias=True)
                )
              )
              (activation_fns): ModuleList(
                (0): Softplus(beta=1, threshold=20)
                (1): Softplus(beta=1, threshold=20)
                (2): Softplus(beta=1, threshold=20)
                (3): Softplus(beta=1, threshold=20)
              )
            )
          )
        )
      )
    )
  )
  (time_change_func): time_change_func_id()
…
m=10000000000.0, begin_epoch=1, resume=None, save='experiments\\time_change_NF', val_freq=1, log_freq=10, no_tb_log=False, test_split='test', time_change='id', time_change_MGN_K=3, time_change_MGN_N=2, l1_reg_loss=False, l2_reg_loss=False, alpha_l1_reg_loss=1.0, alpha_l2_reg_loss=1.0, effective_shape=1)
TimeChangedCNF(
  (sequential_flow): SequentialFlow(
    (chain): ModuleList(
      (0): CNF(
        (odefunc): RegularizedODEfunc(
          (odefunc): AugODEfunc(
            (diffeq): AugODEnet(
              (layers): ModuleList(
                (0): IgnoreLinear(
                  (_layer): Linear(in_features=2, out_features=8, bias=True)
                )
                (1): IgnoreLinear(
                  (_layer): Linear(in_features=8, out_features=32, bias=True)
                )
                (2): IgnoreLinear(
                  (_layer): Linear(in_features=32, out_features=32, bias=True)
                )
                (3): IgnoreLinear(
                  (_layer): Linear(in_features=32, out_features=8, bias=True)
                )
                (4): IgnoreLinear(
                  (_layer): Linear(in_features=8, out_features=1, bias=True)
                )
              )
              (activation_fns): ModuleList(
                (0): Softplus(beta=1, threshold=20)
                (1): Softplus(beta=1, threshold=20)
                (2): Softplus(beta=1, threshold=20)
                (3): Softplus(beta=1, threshold=20)
              )
            )
          )
        )
      )
    )
  )
  (time_change_func): time_change_func_id()
)
TimeChangedCNF(
  (sequential_flow): SequentialFlow(
    (chain): ModuleList(
      (0): CNF(
        (odefunc): RegularizedODEfunc(
          (odefunc): AugODEfunc(
            (diffeq): AugODEnet(
              (layers): ModuleList(
                (0): IgnoreLinear(
                  (_layer): Linear(in_features=2, out_features=8, bias=True)
                )
                (1): IgnoreLinear(
                  (_layer): Linear(in_features=8, out_features=32, bias=True)
                )
                (2): IgnoreLinear(
                  (_layer): Linear(in_features=32, out_features=32, bias=True)
                )
                (3): IgnoreLinear(
                  (_layer): Linear(in_features=32, out_features=8, bias=True)
                )
                (4): IgnoreLinear(
                  (_layer): Linear(in_features=8, out_features=1, bias=True)
                )
              )
              (activation_fns): ModuleList(
                (0): Softplus(beta=1, threshold=20)
                (1): Softplus(beta=1, threshold=20)
                (2): Softplus(beta=1, threshold=20)
                (3): Softplus(beta=1, threshold=20)
              )
            )
          )
        )
      )
    )
  )
  (time_change_func): time_change_func_id()
)
TimeChangedCNF(
  (sequential_flow): SequentialFlow(
    (chain): ModuleList(
      (0): CNF(
        (odefunc): RegularizedODEfunc(
          (odefunc): AugODEfunc(
            (diffeq): AugODEnet(
              (layers): ModuleList(
                (0): IgnoreLinear(
                  (_layer): Linear(in_features=2, out_features=8, bias=True)
                )
                (1): IgnoreLinear(
                  (_layer): Linear(in_features=8, out_features=32, bias=True)
                )
                (2): IgnoreLinear(
                  (_layer): Linear(in_features=32, out_features=32, bias=True)
                )
                (3): IgnoreLinear(
                  (_layer): Linear(in_features=32, out_features=8, bias=True)
                )
                (4): IgnoreLinear(
                  (_layer): Linear(in_features=8, out_features=1, bias=True)
                )
              )
              (activation_fns): ModuleList(
                (0): Softplus(beta=1, threshold=20)
                (1): Softplus(beta=1, threshold=20)
                (2): Softplus(beta=1, threshold=20)
                (3): Softplus(beta=1, threshold=20)
              )
            )
          )
        )
      )
    )
  )
  (time_change_func): time_change_func_id()
)
TimeChangedCNF(
  (sequential_flow): SequentialFlow(
    (chain): ModuleList(
      (0): CNF(
        (odefunc): RegularizedODEfunc(
          (odefunc): AugODEfunc(
            (diffeq): AugODEnet(
              (layers): ModuleList(
                (0): IgnoreLinear(
                  (_layer): Linear(in_features=2, out_features=8, bias=True)
                )
                (1): IgnoreLinear(
                  (_layer): Linear(in_features=8, out_features=32, bias=True)
                )
                (2): IgnoreLinear(
                  (_layer): Linear(in_features=32, out_features=32, bias=True)
                )
                (3): IgnoreLinear(
                  (_layer): Linear(in_features=32, out_features=8, bias=True)
                )
                (4): IgnoreLinear(
                  (_layer): Linear(in_features=8, out_features=1, bias=True)
                )
              )
              (activation_fns): ModuleList(
                (0): Softplus(beta=1, threshold=20)
                (1): Softplus(beta=1, threshold=20)
                (2): Softplus(beta=1, threshold=20)
                (3): Softplus(beta=1, threshold=20)
              )
            )
          )
        )
      )
    )
  )
  (time_change_func): time_change_func_id()
)
TimeChangedCNF(
  (sequential_flow): SequentialFlow(
    (chain): ModuleList(
      (0): CNF(
        (odefunc): RegularizedODEfunc(
          (odefunc): AugODEfunc(
            (diffeq): AugODEnet(
              (layers): ModuleList(
                (0): IgnoreLinear(
                  (_layer): Linear(in_features=2, out_features=8, bias=True)
                )
                (1): IgnoreLinear(
                  (_layer): Linear(in_features=8, out_features=32, bias=True)
                )
                (2): IgnoreLinear(
                  (_layer): Linear(in_features=32, out_features=32, bias=True)
                )
                (3): IgnoreLinear(
                  (_layer): Linear(in_features=32, out_features=8, bias=True)
                )
                (4): IgnoreLinear(
                  (_layer): Linear(in_features=8, out_features=1, bias=True)
                )
              )
              (activation_fns): ModuleList(
                (0): Softplus(beta=1, threshold=20)
                (1): Softplus(beta=1, threshold=20)
                (2): Softplus(beta=1, threshold=20)
                (3): Softplus(beta=1, threshold=20)
              )
            )
          )
        )
      )
    )
  )
  (time_change_func): time_change_func_id()
…
m=10000000000.0, begin_epoch=1, resume=None, save='experiments\\time_change_NF', val_freq=1, log_freq=10, no_tb_log=False, test_split='test', time_change='id', time_change_MGN_K=3, time_change_MGN_N=2, l1_reg_loss=False, l2_reg_loss=False, alpha_l1_reg_loss=1.0, alpha_l2_reg_loss=1.0, effective_shape=1)
TimeChangedCNF(
  (sequential_flow): SequentialFlow(
    (chain): ModuleList(
      (0): CNF(
        (odefunc): RegularizedODEfunc(
          (odefunc): AugODEfunc(
            (diffeq): AugODEnet(
              (layers): ModuleList(
                (0): IgnoreLinear(
                  (_layer): Linear(in_features=2, out_features=8, bias=True)
                )
                (1): IgnoreLinear(
                  (_layer): Linear(in_features=8, out_features=32, bias=True)
                )
                (2): IgnoreLinear(
                  (_layer): Linear(in_features=32, out_features=32, bias=True)
                )
                (3): IgnoreLinear(
                  (_layer): Linear(in_features=32, out_features=8, bias=True)
                )
                (4): IgnoreLinear(
                  (_layer): Linear(in_features=8, out_features=1, bias=True)
                )
              )
              (activation_fns): ModuleList(
                (0): Softplus(beta=1, threshold=20)
                (1): Softplus(beta=1, threshold=20)
                (2): Softplus(beta=1, threshold=20)
                (3): Softplus(beta=1, threshold=20)
              )
            )
          )
        )
      )
    )
  )
  (time_change_func): time_change_func_id()
)
TimeChangedCNF(
  (sequential_flow): SequentialFlow(
    (chain): ModuleList(
      (0): CNF(
        (odefunc): RegularizedODEfunc(
          (odefunc): AugODEfunc(
            (diffeq): AugODEnet(
              (layers): ModuleList(
                (0): IgnoreLinear(
                  (_layer): Linear(in_features=2, out_features=8, bias=True)
                )
                (1): IgnoreLinear(
                  (_layer): Linear(in_features=8, out_features=32, bias=True)
                )
                (2): IgnoreLinear(
                  (_layer): Linear(in_features=32, out_features=32, bias=True)
                )
                (3): IgnoreLinear(
                  (_layer): Linear(in_features=32, out_features=8, bias=True)
                )
                (4): IgnoreLinear(
                  (_layer): Linear(in_features=8, out_features=1, bias=True)
                )
              )
              (activation_fns): ModuleList(
                (0): Softplus(beta=1, threshold=20)
                (1): Softplus(beta=1, threshold=20)
                (2): Softplus(beta=1, threshold=20)
                (3): Softplus(beta=1, threshold=20)
              )
            )
          )
        )
      )
    )
  )
  (time_change_func): time_change_func_id()
)
TimeChangedCNF(
  (sequential_flow): SequentialFlow(
    (chain): ModuleList(
      (0): CNF(
        (odefunc): RegularizedODEfunc(
          (odefunc): AugODEfunc(
            (diffeq): AugODEnet(
              (layers): ModuleList(
                (0): IgnoreLinear(
                  (_layer): Linear(in_features=2, out_features=8, bias=True)
                )
                (1): IgnoreLinear(
                  (_layer): Linear(in_features=8, out_features=32, bias=True)
                )
                (2): IgnoreLinear(
                  (_layer): Linear(in_features=32, out_features=32, bias=True)
                )
                (3): IgnoreLinear(
                  (_layer): Linear(in_features=32, out_features=8, bias=True)
                )
                (4): IgnoreLinear(
                  (_layer): Linear(in_features=8, out_features=1, bias=True)
                )
              )
              (activation_fns): ModuleList(
                (0): Softplus(beta=1, threshold=20)
                (1): Softplus(beta=1, threshold=20)
                (2): Softplus(beta=1, threshold=20)
                (3): Softplus(beta=1, threshold=20)
              )
            )
          )
        )
      )
    )
  )
  (time_change_func): time_change_func_id()
)
TimeChangedCNF(
  (sequential_flow): SequentialFlow(
    (chain): ModuleList(
      (0): CNF(
        (odefunc): RegularizedODEfunc(
          (odefunc): AugODEfunc(
            (diffeq): AugODEnet(
              (layers): ModuleList(
                (0): IgnoreLinear(
                  (_layer): Linear(in_features=2, out_features=8, bias=True)
                )
                (1): IgnoreLinear(
                  (_layer): Linear(in_features=8, out_features=32, bias=True)
                )
                (2): IgnoreLinear(
                  (_layer): Linear(in_features=32, out_features=32, bias=True)
                )
                (3): IgnoreLinear(
                  (_layer): Linear(in_features=32, out_features=8, bias=True)
                )
                (4): IgnoreLinear(
                  (_layer): Linear(in_features=8, out_features=1, bias=True)
                )
              )
              (activation_fns): ModuleList(
                (0): Softplus(beta=1, threshold=20)
                (1): Softplus(beta=1, threshold=20)
                (2): Softplus(beta=1, threshold=20)
                (3): Softplus(beta=1, threshold=20)
              )
            )
          )
        )
      )
    )
  )
  (time_change_func): time_change_func_id()
)
TimeChangedCNF(
  (sequential_flow): SequentialFlow(
    (chain): ModuleList(
      (0): CNF(
        (odefunc): RegularizedODEfunc(
          (odefunc): AugODEfunc(
            (diffeq): AugODEnet(
              (layers): ModuleList(
                (0): IgnoreLinear(
                  (_layer): Linear(in_features=2, out_features=8, bias=True)
                )
                (1): IgnoreLinear(
                  (_layer): Linear(in_features=8, out_features=32, bias=True)
                )
                (2): IgnoreLinear(
                  (_layer): Linear(in_features=32, out_features=32, bias=True)
                )
                (3): IgnoreLinear(
                  (_layer): Linear(in_features=32, out_features=8, bias=True)
                )
                (4): IgnoreLinear(
                  (_layer): Linear(in_features=8, out_features=1, bias=True)
                )
              )
              (activation_fns): ModuleList(
                (0): Softplus(beta=1, threshold=20)
                (1): Softplus(beta=1, threshold=20)
                (2): Softplus(beta=1, threshold=20)
                (3): Softplus(beta=1, threshold=20)
              )
            )
          )
        )
      )
    )
  )
  (time_change_func): time_change_func_id()
)
TimeChangedCNF(
  (sequential_flow): SequentialFlow(
    (chain): ModuleList(
      (0): CNF(
        (odefunc): RegularizedODEfunc(
          (odefunc): AugODEfunc(
            (diffeq): AugODEnet(
              (layers): ModuleList(
                (0): IgnoreLinear(
                  (_layer): Linear(in_features=2, out_features=8, bias=True)
                )
                (1): IgnoreLinear(
                  (_layer): Linear(in_features=8, out_features=32, bias=True)
                )
                (2): IgnoreLinear(
                  (_layer): Linear(in_features=32, out_features=32, bias=True)
                )
                (3): IgnoreLinear(
                  (_layer): Linear(in_features=32, out_features=8, bias=True)
                )
                (4): IgnoreLinear(
                  (_layer): Linear(in_features=8, out_features=1, bias=True)
                )
              )
              (activation_fns): ModuleList(
                (0): Softplus(beta=1, threshold=20)
                (1): Softplus(beta=1, threshold=20)
                (2): Softplus(beta=1, threshold=20)
                (3): Softplus(beta=1, threshold=20)
              )
            )
          )
        )
      )
    )
  )
  (time_change_func): time_change_func_id()
…
m=10000000000.0, begin_epoch=1, resume=None, save='experiments\\time_change_NF', val_freq=1, log_freq=10, no_tb_log=False, test_split='test', time_change='id', time_change_MGN_K=3, time_change_MGN_N=2, l1_reg_loss=False, l2_reg_loss=False, alpha_l1_reg_loss=1.0, alpha_l2_reg_loss=1.0, effective_shape=1)
TimeChangedCNF(
  (sequential_flow): SequentialFlow(
    (chain): ModuleList(
      (0): CNF(
        (odefunc): RegularizedODEfunc(
          (odefunc): AugODEfunc(
            (diffeq): AugODEnet(
              (layers): ModuleList(
                (0): IgnoreLinear(
                  (_layer): Linear(in_features=2, out_features=8, bias=True)
                )
                (1): IgnoreLinear(
                  (_layer): Linear(in_features=8, out_features=32, bias=True)
                )
                (2): IgnoreLinear(
                  (_layer): Linear(in_features=32, out_features=32, bias=True)
                )
                (3): IgnoreLinear(
                  (_layer): Linear(in_features=32, out_features=8, bias=True)
                )
                (4): IgnoreLinear(
                  (_layer): Linear(in_features=8, out_features=1, bias=True)
                )
              )
              (activation_fns): ModuleList(
                (0): Softplus(beta=1, threshold=20)
                (1): Softplus(beta=1, threshold=20)
                (2): Softplus(beta=1, threshold=20)
                (3): Softplus(beta=1, threshold=20)
              )
            )
          )
        )
      )
    )
  )
  (time_change_func): time_change_func_id()
)
TimeChangedCNF(
  (sequential_flow): SequentialFlow(
    (chain): ModuleList(
      (0): CNF(
        (odefunc): RegularizedODEfunc(
          (odefunc): AugODEfunc(
            (diffeq): AugODEnet(
              (layers): ModuleList(
                (0): IgnoreLinear(
                  (_layer): Linear(in_features=2, out_features=8, bias=True)
                )
                (1): IgnoreLinear(
                  (_layer): Linear(in_features=8, out_features=32, bias=True)
                )
                (2): IgnoreLinear(
                  (_layer): Linear(in_features=32, out_features=32, bias=True)
                )
                (3): IgnoreLinear(
                  (_layer): Linear(in_features=32, out_features=8, bias=True)
                )
                (4): IgnoreLinear(
                  (_layer): Linear(in_features=8, out_features=1, bias=True)
                )
              )
              (activation_fns): ModuleList(
                (0): Softplus(beta=1, threshold=20)
                (1): Softplus(beta=1, threshold=20)
                (2): Softplus(beta=1, threshold=20)
                (3): Softplus(beta=1, threshold=20)
              )
            )
          )
        )
      )
    )
  )
  (time_change_func): time_change_func_id()
)
TimeChangedCNF(
  (sequential_flow): SequentialFlow(
    (chain): ModuleList(
      (0): CNF(
        (odefunc): RegularizedODEfunc(
          (odefunc): AugODEfunc(
            (diffeq): AugODEnet(
              (layers): ModuleList(
                (0): IgnoreLinear(
                  (_layer): Linear(in_features=2, out_features=8, bias=True)
                )
                (1): IgnoreLinear(
                  (_layer): Linear(in_features=8, out_features=32, bias=True)
                )
                (2): IgnoreLinear(
                  (_layer): Linear(in_features=32, out_features=32, bias=True)
                )
                (3): IgnoreLinear(
                  (_layer): Linear(in_features=32, out_features=8, bias=True)
                )
                (4): IgnoreLinear(
                  (_layer): Linear(in_features=8, out_features=1, bias=True)
                )
              )
              (activation_fns): ModuleList(
                (0): Softplus(beta=1, threshold=20)
                (1): Softplus(beta=1, threshold=20)
                (2): Softplus(beta=1, threshold=20)
                (3): Softplus(beta=1, threshold=20)
              )
            )
          )
        )
      )
    )
  )
  (time_change_func): time_change_func_id()
)
TimeChangedCNF(
  (sequential_flow): SequentialFlow(
    (chain): ModuleList(
      (0): CNF(
        (odefunc): RegularizedODEfunc(
          (odefunc): AugODEfunc(
            (diffeq): AugODEnet(
              (layers): ModuleList(
                (0): IgnoreLinear(
                  (_layer): Linear(in_features=2, out_features=8, bias=True)
                )
                (1): IgnoreLinear(
                  (_layer): Linear(in_features=8, out_features=32, bias=True)
                )
                (2): IgnoreLinear(
                  (_layer): Linear(in_features=32, out_features=32, bias=True)
                )
                (3): IgnoreLinear(
                  (_layer): Linear(in_features=32, out_features=8, bias=True)
                )
                (4): IgnoreLinear(
                  (_layer): Linear(in_features=8, out_features=1, bias=True)
                )
              )
              (activation_fns): ModuleList(
                (0): Softplus(beta=1, threshold=20)
                (1): Softplus(beta=1, threshold=20)
                (2): Softplus(beta=1, threshold=20)
                (3): Softplus(beta=1, threshold=20)
              )
            )
          )
        )
      )
    )
  )
  (time_change_func): time_change_func_id()
)
TimeChangedCNF(
  (sequential_flow): SequentialFlow(
    (chain): ModuleList(
      (0): CNF(
        (odefunc): RegularizedODEfunc(
          (odefunc): AugODEfunc(
            (diffeq): AugODEnet(
              (layers): ModuleList(
                (0): IgnoreLinear(
                  (_layer): Linear(in_features=2, out_features=8, bias=True)
                )
                (1): IgnoreLinear(
                  (_layer): Linear(in_features=8, out_features=32, bias=True)
                )
                (2): IgnoreLinear(
                  (_layer): Linear(in_features=32, out_features=32, bias=True)
                )
                (3): IgnoreLinear(
                  (_layer): Linear(in_features=32, out_features=8, bias=True)
                )
                (4): IgnoreLinear(
                  (_layer): Linear(in_features=8, out_features=1, bias=True)
                )
              )
              (activation_fns): ModuleList(
                (0): Softplus(beta=1, threshold=20)
                (1): Softplus(beta=1, threshold=20)
                (2): Softplus(beta=1, threshold=20)
                (3): Softplus(beta=1, threshold=20)
              )
            )
          )
        )
      )
    )
  )
  (time_change_func): time_change_func_id()
)
TimeChangedCNF(
  (sequential_flow): SequentialFlow(
    (chain): ModuleList(
      (0): CNF(
        (odefunc): RegularizedODEfunc(
          (odefunc): AugODEfunc(
            (diffeq): AugODEnet(
              (layers): ModuleList(
                (0): IgnoreLinear(
                  (_layer): Linear(in_features=2, out_features=8, bias=True)
                )
                (1): IgnoreLinear(
                  (_layer): Linear(in_features=8, out_features=32, bias=True)
                )
                (2): IgnoreLinear(
                  (_layer): Linear(in_features=32, out_features=32, bias=True)
                )
                (3): IgnoreLinear(
                  (_layer): Linear(in_features=32, out_features=8, bias=True)
                )
                (4): IgnoreLinear(
                  (_layer): Linear(in_features=8, out_features=1, bias=True)
                )
              )
              (activation_fns): ModuleList(
                (0): Softplus(beta=1, threshold=20)
                (1): Softplus(beta=1, threshold=20)
                (2): Softplus(beta=1, threshold=20)
                (3): Softplus(beta=1, threshold=20)
              )
            )
          )
        )
      )
    )
  )
  (time_change_func): time_change_func_id()
)
TimeChangedCNF(
  (sequential_flow): SequentialFlow(
    (chain): ModuleList(
      (0): CNF(
        (odefunc): RegularizedODEfunc(
          (odefunc): AugODEfunc(
            (diffeq): AugODEnet(
              (layers): ModuleList(
                (0): IgnoreLinear(
                  (_layer): Linear(in_features=2, out_features=8, bias=True)
                )
                (1): IgnoreLinear(
                  (_layer): Linear(in_features=8, out_features=32, bias=True)
                )
                (2): IgnoreLinear(
                  (_layer): Linear(in_features=32, out_features=32, bias=True)
                )
                (3): IgnoreLinear(
                  (_layer): Linear(in_features=32, out_features=8, bias=True)
                )
                (4): IgnoreLinear(
                  (_layer): Linear(in_features=8, out_features=1, bias=True)
                )
              )
              (activation_fns): ModuleList(
                (0): Softplus(beta=1, threshold=20)
                (1): Softplus(beta=1, threshold=20)
                (2): Softplus(beta=1, threshold=20)
                (3): Softplus(beta=1, threshold=20)
              )
            )
          )
        )
      )
    )
  )
  (time_change_func): time_change_func_id()
…
m=10000000000.0, begin_epoch=1, resume=None, save='experiments\\time_change_NF', val_freq=1, log_freq=10, no_tb_log=False, test_split='test', time_change='id', time_change_MGN_K=3, time_change_MGN_N=2, l1_reg_loss=False, l2_reg_loss=False, alpha_l1_reg_loss=1.0, alpha_l2_reg_loss=1.0, effective_shape=1)
TimeChangedCNF(
  (sequential_flow): SequentialFlow(
    (chain): ModuleList(
      (0): CNF(
        (odefunc): RegularizedODEfunc(
          (odefunc): AugODEfunc(
            (diffeq): AugODEnet(
              (layers): ModuleList(
                (0): IgnoreLinear(
                  (_layer): Linear(in_features=2, out_features=8, bias=True)
                )
                (1): IgnoreLinear(
                  (_layer): Linear(in_features=8, out_features=32, bias=True)
                )
                (2): IgnoreLinear(
                  (_layer): Linear(in_features=32, out_features=32, bias=True)
                )
                (3): IgnoreLinear(
                  (_layer): Linear(in_features=32, out_features=8, bias=True)
                )
                (4): IgnoreLinear(
                  (_layer): Linear(in_features=8, out_features=1, bias=True)
                )
              )
              (activation_fns): ModuleList(
                (0): Softplus(beta=1, threshold=20)
                (1): Softplus(beta=1, threshold=20)
                (2): Softplus(beta=1, threshold=20)
                (3): Softplus(beta=1, threshold=20)
              )
            )
          )
        )
      )
    )
  )
  (time_change_func): time_change_func_id()
…
